…
_state_dict(torch.load(save_path))\n","\n","# 3. 設為評估模式 (非常重要，會關閉 Dropout 和 BatchNorm 的訓練行為)\n","model.eval()\n","\n","# 現在 model 已經準備好進行預測了\n","# output = model(some_input_image)"],"metadata":{"colab":{"base_uri":"https://localhost:8080/"},"id":"j4mPTbFtfekb","executionInfo":{"status":"ok","timestamp":1761634468393,"user_tz":-480,"elapsed":2929,"user":{"displayName":"173A-17洪嘉隆","userId":"01584041784887011217"}},"outputId":"97477344-41db-4e51-f601-de2da1db7eda"},"execution_count":19,"outputs":[{"output_type":"execute_result","data":{"text/plain":["VGG(\n","  (features): Sequential(\n","    (0): Conv2d(3, 64, kernel_size=(3, 3), stride=(1, 1), padding=(1, 1))\n","    (1): ReLU(inplace=True)\n","    (2): Conv2d(64, 64, kernel_size=(3, 3), stride=(1, 1), padding=(1, 1))\n","    (3): ReLU(inplace=True)\n","    (4): MaxPool2d(kernel_size=2, stride=2, padding=0, dilation=1, ceil_mode=False)\n","    (5): Conv2d(64, 128, kernel_size=(3, 3), stride=(1, 1), padding=(1, 1))\n","    (6): ReLU(inplace=True)\n","    (7): Conv2d(128, 128, kernel_size=(3, 3), stride=(1, 1), padding=(1, 1))\n","    (8): ReLU(inplace=True)\n","    (9): MaxPool2d(kernel_size=2, stride=2, padding=0, dilation=1, ceil_mode=False)\n","    (10): Conv2d(128, 256, kernel_size=(3, 3), stride=(1, 1), padding=(1, 1))\n","    (11): ReLU(inplace=True)\n","    (12): Conv2d(256, 256, kernel_size=(3, 3), stride=(1, 1), padding=(1, 1))\n","    (13): ReLU(inplace=True)\n","    (14): Conv2d(256, 256, kernel_size=(3, 3), stride=(1, 1), padding=(1, 1))\n","    (15): ReLU(inplace=True)\n","    (16): MaxPool2d(kernel_size=2, stride=2, padding=0, dilation=1, ceil_mode=False)\n","    (17): Conv2d(256, 512, kernel_size=(3, 3), stride=(1, 1), padding=(1, 1))\n","    (18): ReLU(inplace=True)\n","    (19): Conv2d(512, 512, kernel_size=(3, 3), stride=(1, 1), padding=(1, 1))\n","    (20): ReLU(inplace=True)\n","    (21): Conv2d(512, 512, kernel_size=(3, 3), stride=(1, 1), padding=(1, 1))\n","    (22): ReLU(inplace=True)\n","    (23): MaxPool2d(kernel_size=2, stride=2, padding=0, dilation=1, ceil_mode=False)\n","    (24): Conv2d(512, 512, kernel_size=(3, 3), stride=(1, 1), padding=(1, 1))\n","    (25): ReLU(inplace=True)\n","    (26): Conv2d(512, 512, kernel_size=(3, 3), stride=(1, 1), padding=(1, 1))\n","    (27): ReLU(inplace=True)\n","    (28): Conv2d(512, 512, kernel_size=(3, 3), stride=(1, 1), padding=(1, 1))\n","    (29): ReLU(inplace=True)\n","    (30): MaxPool2d(kernel_size=2, stride=2, padding=0, dilation=1, ceil_mode=False)\n","  )\n","  (avgpool): AdaptiveAvgPool2d(output_size=(7, 7))\n","  (classifier): Sequential(\n","    (0): Linear(in_features=25088, out_features=4096, bias=True)\n","    (1): ReLU(inplace=True)\n","    (2): Dropout(p=0.5, inplace=False)\n","    (3): Linear(in_features=4096, out_features=4096, bias=True)\n","    (4): ReLU(inplace=True)\n","    (5): Dropout(p=0.5, inplace=False)\n","    (6): Linear(in_features=4096, out_features=2, bias=True)\n","  )\n",")"]},"metadata":{},"execution_count":19}]},{"cell_type":"code","source":["# --- 1. 設定 (請根據您的環境修改) ---\n","\n","# ⚠️ 1. 修正：使用新的模型權重檔案\n","MODEL_PATH = './vgg16_key_pen.pth'\n","\n","# ⚠️ 2. 修正：使用 'newdata' 資料夾中的範例圖片\n","# (請將 \"some_key.jpg\" 和 \"some_pen.jpg\" 換成您 'test' 資料夾中的實際檔名)\n","IMAGE_PATH_KEY = './newdata/test/key/32.jpg'\n","IMAGE_P
…
